Model(
  (enc_tail): ModuleList(
    (0): Conv2d(3, 24, kernel_size=(3, 3), stride=(1, 1), padding=(1, 1), bias=False)
  )
  (enc_0): ModuleList(
    (0): XBlock(
      (bn1): BatchNorm2d(24, eps=1e-05, momentum=0.1, affine=True, track_running_stats=True)
      (relu1): ReLU()
      (conv1): Conv2d(24, 24, kernel_size=(1, 1), stride=(1, 1), bias=False)
      (bn2): BatchNorm2d(24, eps=1e-05, momentum=0.1, affine=True, track_running_stats=True)
      (relu2): ReLU()
      (conv2): Conv2d(24, 24, kernel_size=(3, 3), stride=(1, 1), padding=(1, 1), groups=8, bias=False)
      (bn3): BatchNorm2d(24, eps=1e-05, momentum=0.1, affine=True, track_running_stats=True)
      (relu3): ReLU()
      (conv3): Conv2d(24, 24, kernel_size=(1, 1), stride=(1, 1), bias=False)
    )
  )
  (enc_1): ModuleList(
    (0): XBlock(
      (conv0): Conv2d(24, 56, kernel_size=(1, 1), stride=(2, 2), groups=8, bias=False)
      (bn1): BatchNorm2d(24, eps=1e-05, momentum=0.1, affine=True, track_running_stats=True)
      (relu1): ReLU()
      (conv1): Conv2d(24, 24, kernel_size=(1, 1), stride=(1, 1), bias=False)
      (bn2): BatchNorm2d(24, eps=1e-05, momentum=0.1, affine=True, track_running_stats=True)
      (relu2): ReLU()
      (conv2): Conv2d(24, 24, kernel_size=(3, 3), stride=(2, 2), padding=(1, 1), groups=8, bias=False)
      (bn3): BatchNorm2d(56, eps=1e-05, momentum=0.1, affine=True, track_running_stats=True)
      (relu3): ReLU()
      (conv3): Conv2d(24, 56, kernel_size=(1, 1), stride=(1, 1), bias=False)
    )
  )
  (enc_2): ModuleList(
    (0): XBlock(
      (conv0): Conv2d(56, 152, kernel_size=(1, 1), stride=(2, 2), groups=8, bias=False)
      (bn1): BatchNorm2d(56, eps=1e-05, momentum=0.1, affine=True, track_running_stats=True)
      (relu1): ReLU()
      (conv1): Conv2d(56, 56, kernel_size=(1, 1), stride=(1, 1), bias=False)
      (bn2): BatchNorm2d(56, eps=1e-05, momentum=0.1, affine=True, track_running_stats=True)
      (relu2): ReLU()
      (conv2): Conv2d(56, 56, kernel_size=(3, 3), stride=(2, 2), padding=(1, 1), groups=8, bias=False)
      (bn3): BatchNorm2d(152, eps=1e-05, momentum=0.1, affine=True, track_running_stats=True)
      (relu3): ReLU()
      (conv3): Conv2d(56, 152, kernel_size=(1, 1), stride=(1, 1), bias=False)
    )
    (1): XBlock(
      (bn1): BatchNorm2d(56, eps=1e-05, momentum=0.1, affine=True, track_running_stats=True)
      (relu1): ReLU()
      (conv1): Conv2d(152, 56, kernel_size=(1, 1), stride=(1, 1), bias=False)
      (bn2): BatchNorm2d(56, eps=1e-05, momentum=0.1, affine=True, track_running_stats=True)
      (relu2): ReLU()
      (conv2): Conv2d(56, 56, kernel_size=(3, 3), stride=(1, 1), padding=(1, 1), groups=8, bias=False)
      (bn3): BatchNorm2d(152, eps=1e-05, momentum=0.1, affine=True, track_running_stats=True)
      (relu3): ReLU()
      (conv3): Conv2d(56, 152, kernel_size=(1, 1), stride=(1, 1), bias=False)
    )
    (2): XBlock(
      (bn1): BatchNorm2d(56, eps=1e-05, momentum=0.1, affine=True, track_running_stats=True)
      (relu1): ReLU()
      (conv1): Conv2d(152, 56, kernel_size=(1, 1), stride=(1, 1), bias=False)
      (bn2): BatchNorm2d(56, eps=1e-05, momentum=0.1, affine=True, track_running_stats=True)
      (relu2): ReLU()
      (conv2): Conv2d(56, 56, kernel_size=(3, 3), stride=(1, 1), padding=(1, 1), groups=8, bias=False)
      (bn3): BatchNorm2d(152, eps=1e-05, momentum=0.1, affine=True, track_running_stats=True)
      (relu3): ReLU()
      (conv3): Conv2d(56, 152, kernel_size=(1, 1), stride=(1, 1), bias=False)
    )
    (3): XBlock(
      (bn1): BatchNorm2d(56, eps=1e-05, momentum=0.1, affine=True, track_running_stats=True)
      (relu1): ReLU()
      (conv1): Conv2d(152, 56, kernel_size=(1, 1), stride=(1, 1), bias=False)
      (bn2): BatchNorm2d(56, eps=1e-05, momentum=0.1, affine=True, track_running_stats=True)
      (relu2): ReLU()
      (conv2): Conv2d(56, 56, kernel_size=(3, 3), stride=(1, 1), padding=(1, 1), groups=8, bias=False)
      (bn3): BatchNorm2d(152, eps=1e-05, momentum=0.1, affine=True, track_running_stats=True)
      (relu3): ReLU()
      (conv3): Conv2d(56, 152, kernel_size=(1, 1), stride=(1, 1), bias=False)
    )
  )
  (enc_3): ModuleList(
    (0): XBlock(
      (conv0): Conv2d(152, 368, kernel_size=(1, 1), stride=(2, 2), groups=8, bias=False)
      (bn1): BatchNorm2d(152, eps=1e-05, momentum=0.1, affine=True, track_running_stats=True)
      (relu1): ReLU()
      (conv1): Conv2d(152, 152, kernel_size=(1, 1), stride=(1, 1), bias=False)
      (bn2): BatchNorm2d(152, eps=1e-05, momentum=0.1, affine=True, track_running_stats=True)
      (relu2): ReLU()
      (conv2): Conv2d(152, 152, kernel_size=(3, 3), stride=(2, 2), padding=(1, 1), groups=8, bias=False)
      (bn3): BatchNorm2d(368, eps=1e-05, momentum=0.1, affine=True, track_running_stats=True)
      (relu3): ReLU()
      (conv3): Conv2d(152, 368, kernel_size=(1, 1), stride=(1, 1), bias=False)
    )
    (1): XBlock(
      (bn1): BatchNorm2d(152, eps=1e-05, momentum=0.1, affine=True, track_running_stats=True)
      (relu1): ReLU()
      (conv1): Conv2d(368, 152, kernel_size=(1, 1), stride=(1, 1), bias=False)
      (bn2): BatchNorm2d(152, eps=1e-05, momentum=0.1, affine=True, track_running_stats=True)
      (relu2): ReLU()
      (conv2): Conv2d(152, 152, kernel_size=(3, 3), stride=(1, 1), padding=(1, 1), groups=8, bias=False)
      (bn3): BatchNorm2d(368, eps=1e-05, momentum=0.1, affine=True, track_running_stats=True)
      (relu3): ReLU()
      (conv3): Conv2d(152, 368, kernel_size=(1, 1), stride=(1, 1), bias=False)
    )
    (2): XBlock(
      (bn1): BatchNorm2d(152, eps=1e-05, momentum=0.1, affine=True, track_running_stats=True)
      (relu1): ReLU()
      (conv1): Conv2d(368, 152, kernel_size=(1, 1), stride=(1, 1), bias=False)
      (bn2): BatchNorm2d(152, eps=1e-05, momentum=0.1, affine=True, track_running_stats=True)
      (relu2): ReLU()
      (conv2): Conv2d(152, 152, kernel_size=(3, 3), stride=(1, 1), padding=(1, 1), groups=8, bias=False)
      (bn3): BatchNorm2d(368, eps=1e-05, momentum=0.1, affine=True, track_running_stats=True)
      (relu3): ReLU()
      (conv3): Conv2d(152, 368, kernel_size=(1, 1), stride=(1, 1), bias=False)
    )
    (3): XBlock(
      (bn1): BatchNorm2d(152, eps=1e-05, momentum=0.1, affine=True, track_running_stats=True)
      (relu1): ReLU()
      (conv1): Conv2d(368, 152, kernel_size=(1, 1), stride=(1, 1), bias=False)
      (bn2): BatchNorm2d(152, eps=1e-05, momentum=0.1, affine=True, track_running_stats=True)
      (relu2): ReLU()
      (conv2): Conv2d(152, 152, kernel_size=(3, 3), stride=(1, 1), padding=(1, 1), groups=8, bias=False)
      (bn3): BatchNorm2d(368, eps=1e-05, momentum=0.1, affine=True, track_running_stats=True)
      (relu3): ReLU()
      (conv3): Conv2d(152, 368, kernel_size=(1, 1), stride=(1, 1), bias=False)
    )
    (4): XBlock(
      (bn1): BatchNorm2d(152, eps=1e-05, momentum=0.1, affine=True, track_running_stats=True)
      (relu1): ReLU()
      (conv1): Conv2d(368, 152, kernel_size=(1, 1), stride=(1, 1), bias=False)
      (bn2): BatchNorm2d(152, eps=1e-05, momentum=0.1, affine=True, track_running_stats=True)
      (relu2): ReLU()
      (conv2): Conv2d(152, 152, kernel_size=(3, 3), stride=(1, 1), padding=(1, 1), groups=8, bias=False)
      (bn3): BatchNorm2d(368, eps=1e-05, momentum=0.1, affine=True, track_running_stats=True)
      (relu3): ReLU()
      (conv3): Conv2d(152, 368, kernel_size=(1, 1), stride=(1, 1), bias=False)
    )
    (5): XBlock(
      (bn1): BatchNorm2d(152, eps=1e-05, momentum=0.1, affine=True, track_running_stats=True)
      (relu1): ReLU()
      (conv1): Conv2d(368, 152, kernel_size=(1, 1), stride=(1, 1), bias=False)
      (bn2): BatchNorm2d(152, eps=1e-05, momentum=0.1, affine=True, track_running_stats=True)
      (relu2): ReLU()
      (conv2): Conv2d(152, 152, kernel_size=(3, 3), stride=(1, 1), padding=(1, 1), groups=8, bias=False)
      (bn3): BatchNorm2d(368, eps=1e-05, momentum=0.1, affine=True, track_running_stats=True)
      (relu3): ReLU()
      (conv3): Conv2d(152, 368, kernel_size=(1, 1), stride=(1, 1), bias=False)
    )
    (6): XBlock(
      (bn1): BatchNorm2d(152, eps=1e-05, momentum=0.1, affine=True, track_running_stats=True)
      (relu1): ReLU()
      (conv1): Conv2d(368, 152, kernel_size=(1, 1), stride=(1, 1), bias=False)
      (bn2): BatchNorm2d(152, eps=1e-05, momentum=0.1, affine=True, track_running_stats=True)
      (relu2): ReLU()
      (conv2): Conv2d(152, 152, kernel_size=(3, 3), stride=(1, 1), padding=(1, 1), groups=8, bias=False)
      (bn3): BatchNorm2d(368, eps=1e-05, momentum=0.1, affine=True, track_running_stats=True)
      (relu3): ReLU()
      (conv3): Conv2d(152, 368, kernel_size=(1, 1), stride=(1, 1), bias=False)
    )
  )
  (dec): ModuleList(
    (0): AdaptiveAvgPool2d(output_size=(1, 1))
    (1): Flatten()
    (2): Linear(in_features=368, out_features=100, bias=True)
  )
)






Initial = 32
Epoch  0 time 155.695 lr = 0.010000 avg loss = 0.007395 accuracy = 18.79
Epoch  1 time 157.581 lr = 0.010000 avg loss = 0.005894 accuracy = 28.43
Epoch  2 time 158.014 lr = 0.010000 avg loss = 0.005210 accuracy = 37.98
Epoch  3 time 157.912 lr = 0.010000 avg loss = 0.004855 accuracy = 41.60
Epoch  4 time 157.503 lr = 0.011363 avg loss = 0.004623 accuracy = 42.99
…
